…
============================================================
Using device: cuda
loading Roboflow workspace...
loading Roboflow project...
Found 5 classes: ['Harlequin ichthyosis', 'Healthy skin', 'Ichthyosis vulgaris ', 'Lamellar ichthyosis', 'Netherton syndrome']

--- Model Summary ---
=========================================================================================================
Layer (type:depth-idx)                                  Output Shape              Param #
=========================================================================================================
CoAtNet                                                 [24, 5]                   --
├─ConvNeXt: 1-1                                         [24, 5]                   --
│    └─Sequential: 2-1                                  [24, 96, 56, 56]          --
│    │    └─Conv2d: 3-1                                 [24, 96, 56, 56]          4,704
│    │    └─LayerNorm2d: 3-2                            [24, 96, 56, 56]          192
│    └─Sequential: 2-2                                  [24, 768, 7, 7]           --
│    │    └─ConvNeXtStage: 3-3                          [24, 96, 56, 56]          237,888
│    │    └─ConvNeXtStage: 3-4                          [24, 192, 28, 28]         992,256
│    │    └─ConvNeXtStage: 3-5                          [24, 384, 14, 14]         11,112,960
│    │    └─ConvNeXtStage: 3-6                          [24, 768, 7, 7]           15,470,592
│    └─Identity: 2-3                                    [24, 768, 7, 7]           --
│    └─NormMlpClassifierHead: 2-4                       [24, 5]                   --
│    │    └─SelectAdaptivePool2d: 3-7                   [24, 768, 1, 1]           --
│    │    └─LayerNorm2d: 3-8                            [24, 768, 1, 1]           1,536
│    │    └─Flatten: 3-9                                [24, 768]                 --
│    │    └─Identity: 3-10                              [24, 768]                 --
│    │    └─Dropout: 3-11                               [24, 768]                 --
│    │    └─Linear: 3-12                                [24, 5]                   3,845
=========================================================================================================
Total params: 27,823,973
Trainable params: 27,823,973
Non-trainable params: 0
Total mult-adds (Units.GIGABYTES): 7.72
=========================================================================================================
Input size (MB): 14.45
Forward/backward pass size (MB): 3150.40
Params size (MB): 111.27
…
Found 5 classes: ['Harlequin ichthyosis', 'Healthy skin', 'Ichthyosis vulgaris ', 'Lamellar ichthyosis', 'Netherton syndrome']
Warning: You are sending unauthenticated requests to the HF Hub. Please set a HF_TOKEN to enable higher rate limits and faster downloads.
model.safetensors: 100% 22.9M/22.9M [00:01<00:00, 13.9MB/s]

--- Model Summary ---
==========================================================================================
Layer (type:depth-idx)                   Output Shape              Param #
==========================================================================================
GFT                                      [24, 5]                   2,010,472
├─PatchEmbed: 1-1                        [24, 196, 192]            --
│    └─Conv2d: 2-1                       [24, 192, 14, 14]         147,648
│    └─Identity: 2-2                     [24, 196, 192]            --
├─Sequential: 1-2                        [24, 197, 192]            --
│    └─Block: 2-3                        [24, 197, 192]            --
│    │    └─LayerNorm: 3-1               [24, 197, 192]            384
│    │    └─Attention: 3-2               [24, 197, 192]            148,224
│    │    └─Identity: 3-3                [24, 197, 192]            --
│    │    └─Identity: 3-4                [24, 197, 192]            --
│    │    └─LayerNorm: 3-5               [24, 197, 192]            384
│    │    └─Mlp: 3-6                     [24, 197, 192]            295,872
│    │    └─Identity: 3-7                [24, 197, 192]            --
│    │    └─Identity: 3-8                [24, 197, 192]            --
│    └─Block: 2-4                        [24, 197, 192]            --
│    │    └─LayerNorm: 3-9               [24, 197, 192]            384
│    │    └─Attention: 3-10              [24, 197, 192]            148,224
│    │    └─Identity: 3-11               [24, 197, 192]            --
│    │    └─Identity: 3-12               [24, 197, 192]            --
│    │    └─LayerNorm: 3-13              [24, 197, 192]            384
│    │    └─Mlp: 3-14                    [24, 197, 192]            295,872
│    │    └─Identity: 3-15               [24, 197, 192]            --
│    │    └─Identity: 3-16               [24, 197, 192]            --
│    └─Block: 2-5                        [24, 197, 192]            --
│    │    └─LayerNorm: 3-17              [24, 197, 192]            384
│    │    └─Attention: 3-18              [24, 197, 192]            148,224
│    │    └─Identity: 3-19               [24, 197, 192]            --
│    │    └─Identity: 3-20               [24, 197, 192]            --
│    │    └─LayerNorm: 3-21              [24, 197, 192]            384
│    │    └─Mlp: 3-22                    [24, 197, 192]            295,872
│    │    └─Identity: 3-23               [24, 197, 192]            --
│    │    └─Identity: 3-24               [24, 197, 192]            --
│    └─Block: 2-6                        [24, 197, 192]            --
│    │    └─LayerNorm: 3-25              [24, 197, 192]            384
│    │    └─Attention: 3-26              [24, 197, 192]            148,224
│    │    └─Identity: 3-27               [24, 197, 192]            --
│    │    └─Identity: 3-28               [24, 197, 192]            --
│    │    └─LayerNorm: 3-29              [24, 197, 192]            384
│    │    └─Mlp: 3-30                    [24, 197, 192]            295,872
│    │    └─Identity: 3-31               [24, 197, 192]            --
│    │    └─Identity: 3-32               [24, 197, 192]            --
│    └─Block: 2-7                        [24, 197, 192]            --
│    │    └─LayerNorm: 3-33              [24, 197, 192]            384
│    │    └─Attention: 3-34              [24, 197, 192]            148,224
│    │    └─Identity: 3-35               [24, 197, 192]            --
│    │    └─Identity: 3-36               [24, 197, 192]            --
│    │    └─LayerNorm: 3-37              [24, 197, 192]            384
│    │    └─Mlp: 3-38                    [24, 197, 192]            295,872
│    │    └─Identity: 3-39               [24, 197, 192]            --
│    │    └─Identity: 3-40               [24, 197, 192]            --
│    └─Block: 2-8                        [24, 197, 192]            --
│    │    └─LayerNorm: 3-41              [24, 197, 192]            384
│    │    └─Attention: 3-42              [24, 197, 192]            148,224
│    │    └─Identity: 3-43               [24, 197, 192]            --
│    │    └─Identity: 3-44               [24, 197, 192]            --
│    │    └─LayerNorm: 3-45              [24, 197, 192]            384
│    │    └─Mlp: 3-46                    [24, 197, 192]            295,872
│    │    └─Identity: 3-47               [24, 197, 192]            --
│    │    └─Identity: 3-48               [24, 197, 192]            --
│    └─Block: 2-9                        [24, 197, 192]            --
│    │    └─LayerNorm: 3-49              [24, 197, 192]            384
│    │    └─Attention: 3-50              [24, 197, 192]            148,224
│    │    └─Identity: 3-51               [24, 197, 192]            --
│    │    └─Identity: 3-52               [24, 197, 192]            --
│    │    └─LayerNorm: 3-53              [24, 197, 192]            384
│    │    └─Mlp: 3-54                    [24, 197, 192]            295,872
│    │    └─Identity: 3-55               [24, 197, 192]            --
│    │    └─Identity: 3-56               [24, 197, 192]            --
│    └─Block: 2-10                       [24, 197, 192]            --
│    │    └─LayerNorm: 3-57              [24, 197, 192]            384
│    │    └─Attention: 3-58              [24, 197, 192]            148,224
│    │    └─Identity: 3-59               [24, 197, 192]            --
│    │    └─Identity: 3-60               [24, 197, 192]            --
│    │    └─LayerNorm: 3-61              [24, 197, 192]            384
│    │    └─Mlp: 3-62                    [24, 197, 192]            295,872
│    │    └─Identity: 3-63               [24, 197, 192]            --
│    │    └─Identity: 3-64               [24, 197, 192]            --
├─ModuleList: 1-3                        --                        --
│    └─GALA: 2-11                        [24, 197, 192]            --
│    │    └─MultiheadAttention: 3-65     [24, 197, 192]            147,456
│    │    └─Conv1d: 3-66                 [24, 1, 197]              3
│    └─GALA: 2-12                        [24, 148, 192]            --
│    │    └─MultiheadAttention: 3-67     [24, 148, 192]            147,456
│    │    └─Conv1d: 3-68                 [24, 1, 148]              3
│    └─GALA: 2-13                        [24, 99, 192]             --
│    │    └─MultiheadAttention: 3-69     [24, 99, 192]             147,456
│    │    └─Conv1d: 3-70                 [24, 1, 99]               3
├─LayerNorm: 1-4                         [24, 50, 192]             384
├─Linear: 1-5                            [24, 5]                   965
==========================================================================================
Total params: 6,160,758
Trainable params: 6,160,758
Non-trainable params: 0
Total mult-adds (Units.MEGABYTES): 780.01
==========================================================================================
Input size (MB): 14.45
Forward/backward pass size (MB): 648.23
Params size (MB): 14.83
Estimated Total Size (MB): 677.51
…
Downloading Dataset Version Zip in ich-s-1 to folder:: 100% 179569/179569 [00:16<00:00, 11055.13it/s]

Extracting Dataset Version Zip to ich-s-1 in folder:: 100% 2528/2528 [00:21<00:00, 119.07it/s]
Found 5 classes: ['Harlequin ichthyosis', 'Healthy skin', 'Ichthyosis vulgaris ', 'Lamellar ichthyosis', 'Netherton syndrome']

--- Model Summary ---
==========================================================================================
Layer (type:depth-idx)                   Output Shape              Param #
==========================================================================================
FairCNN                                  [24, 5]                   --
├─Sequential: 1-1                        [24, 128, 56, 56]         --
│    └─Conv2d: 2-1                       [24, 32, 224, 224]        896
│    └─BatchNorm2d: 2-2                  [24, 32, 224, 224]        64
│    └─ReLU: 2-3                         [24, 32, 224, 224]        --
│    └─Conv2d: 2-4                       [24, 64, 224, 224]        18,496
│    └─BatchNorm2d: 2-5                  [24, 64, 224, 224]        128
│    └─ReLU: 2-6                         [24, 64, 224, 224]        --
│    └─MaxPool2d: 2-7                    [24, 64, 112, 112]        --
│    └─Conv2d: 2-8                       [24, 128, 112, 112]       73,856
│    └─BatchNorm2d: 2-9                  [24, 128, 112, 112]       256
│    └─ReLU: 2-10                        [24, 128, 112, 112]       --
│    └─Conv2d: 2-11                      [24, 128, 112, 112]       147,584
│    └─BatchNorm2d: 2-12                 [24, 128, 112, 112]       256
│    └─ReLU: 2-13                        [24, 128, 112, 112]       --
│    └─MaxPool2d: 2-14                   [24, 128, 56, 56]         --
├─Sequential: 1-2                        [24, 5]                   --
│    └─AdaptiveAvgPool2d: 2-15           [24, 128, 1, 1]           --
│    └─Flatten: 2-16                     [24, 128]                 --
│    └─Linear: 2-17                      [24, 5]                   645
==========================================================================================
Total params: 242,181
Trainable params: 242,181
Non-trainable params: 0
Total mult-adds (Units.GIGABYTES): 90.02
==========================================================================================
Input size (MB): 14.45
Forward/backward pass size (MB): 3082.81
Params size (MB): 0.97
Estimated Total Size (MB): 3098.23
…
Extracting Dataset Version Zip to ich-s-1 in folder:: 100% 2528/2528 [00:20<00:00, 121.50it/s]
Found 5 classes: ['Harlequin ichthyosis', 'Healthy skin', 'Ichthyosis vulgaris ', 'Lamellar ichthyosis', 'Netherton syndrome']

Loading efficientnet_b0 architecture (trained FROM SCRATCH — see pretrained version for primary comparison)...

--- Model Summary ---
===============================================================================================
Layer (type:depth-idx)                        Output Shape              Param #
===============================================================================================
EfficientNet                                  [24, 5]                   --
├─Conv2d: 1-1                                 [24, 32, 112, 112]        864
├─BatchNormAct2d: 1-2                         [24, 32, 112, 112]        64
│    └─Identity: 2-1                          [24, 32, 112, 112]        --
│    └─SiLU: 2-2                              [24, 32, 112, 112]        --
├─Sequential: 1-3                             [24, 320, 7, 7]           --
│    └─Sequential: 2-3                        [24, 16, 112, 112]        --
│    │    └─DepthwiseSeparableConv: 3-1       [24, 16, 112, 112]        1,448
│    └─Sequential: 2-4                        [24, 24, 56, 56]          --
│    │    └─InvertedResidual: 3-2             [24, 24, 56, 56]          6,004
│    │    └─InvertedResidual: 3-3             [24, 24, 56, 56]          10,710
│    └─Sequential: 2-5                        [24, 40, 28, 28]          --
│    │    └─InvertedResidual: 3-4             [24, 40, 28, 28]          15,350
│    │    └─InvertedResidual: 3-5             [24, 40, 28, 28]          31,290
│    └─Sequential: 2-6                        [24, 80, 14, 14]          --
│    │    └─InvertedResidual: 3-6             [24, 80, 14, 14]          37,130
│    │    └─InvertedResidual: 3-7             [24, 80, 14, 14]          102,900
│    │    └─InvertedResidual: 3-8             [24, 80, 14, 14]          102,900
│    └─Sequential: 2-7                        [24, 112, 14, 14]         --
│    │    └─InvertedResidual: 3-9             [24, 112, 14, 14]         126,004
│    │    └─InvertedResidual: 3-10            [24, 112, 14, 14]         208,572
│    │    └─InvertedResidual: 3-11            [24, 112, 14, 14]         208,572
│    └─Sequential: 2-8                        [24, 192, 7, 7]           --
│    │    └─InvertedResidual: 3-12            [24, 192, 7, 7]           262,492
│    │    └─InvertedResidual: 3-13            [24, 192, 7, 7]           587,952
│    │    └─InvertedResidual: 3-14            [24, 192, 7, 7]           587,952
│    │    └─InvertedResidual: 3-15            [24, 192, 7, 7]           587,952
│    └─Sequential: 2-9                        [24, 320, 7, 7]           --
│    │    └─InvertedResidual: 3-16            [24, 320, 7, 7]           717,232
├─Conv2d: 1-4                                 [24, 1280, 7, 7]          409,600
├─BatchNormAct2d: 1-5                         [24, 1280, 7, 7]          2,560
│    └─Identity: 2-10                         [24, 1280, 7, 7]          --
│    └─SiLU: 2-11                             [24, 1280, 7, 7]          --
├─SelectAdaptivePool2d: 1-6                   [24, 1280]                --
│    └─AdaptiveAvgPool2d: 2-12                [24, 1280, 1, 1]          --
│    └─Flatten: 2-13                          [24, 1280]                --
├─Linear: 1-7                                 [24, 5]                   6,405
===============================================================================================
Total params: 4,013,953
Trainable params: 4,013,953
Non-trainable params: 0
Total mult-adds (Units.GIGABYTES): 9.23
===============================================================================================
Input size (MB): 14.45
Forward/backward pass size (MB): 1295.43
Params size (MB): 15.89
Estimated Total Size (MB): 1325.77
…
Using device: cuda
Downloading dataset from Roboflow...
loading Roboflow workspace...
loading Roboflow project...
Found 5 classes: ['Harlequin ichthyosis', 'Healthy skin', 'Ichthyosis vulgaris ', 'Lamellar ichthyosis', 'Netherton syndrome']

--- Model Summary ---
====================================================================================================
Layer (type:depth-idx)                             Output Shape              Param #
====================================================================================================
SwinTransformer                                    [16, 5]                   --
├─PatchEmbed: 1-1                                  [16, 3136, 96]            --
│    └─Conv2d: 2-1                                 [16, 96, 56, 56]          4,704
│    └─LayerNorm: 2-2                              [16, 3136, 96]            192
├─ModuleList: 1-2                                  --                        --
│    └─BasicLayer: 2-3                             [16, 3136, 96]            --
│    │    └─ModuleList: 3-1                        --                        224,694
│    │    └─PatchMerging: 3-2                      [16, 784, 192]            74,496
│    └─BasicLayer: 2-4                             [16, 784, 192]            --
│    │    └─ModuleList: 3-3                        --                        891,756
│    │    └─PatchMerging: 3-4                      [16, 196, 384]            296,448
│    └─BasicLayer: 2-5                             [16, 196, 384]            --
│    │    └─ModuleList: 3-5                        --                        10,658,952
│    │    └─PatchMerging: 3-6                      [16, 49, 768]             1,182,720
│    └─BasicLayer: 2-6                             [16, 49, 768]             --
│    │    └─ModuleList: 3-7                        --                        14,183,856
├─LayerNorm: 1-3                                   [16, 49, 768]             1,536
├─AdaptiveAvgPool1d: 1-4                           [16, 768, 1]              --
├─Linear: 1-5                                      [16, 5]                   3,845
====================================================================================================
Total params: 27,523,199
Trainable params: 27,523,199
Non-trainable params: 0
Total mult-adds (Units.MEGABYTES): 992.50
====================================================================================================
Input size (MB): 9.63
Forward/backward pass size (MB): 2196.51
Params size (MB): 110.00
…
============================================================
Using device: cuda
Downloading dataset from Roboflow...
loading Roboflow workspace...
loading Roboflow project...
Found 5 classes: ['Harlequin ichthyosis', 'Healthy skin', 'Ichthyosis vulgaris ', 'Lamellar ichthyosis', 'Netherton syndrome']

--- Model Summary ---
===============================================================================================
Layer (type:depth-idx)                        Output Shape              Param #
===============================================================================================
VisionTransformer                             [16, 5]                   38,016
├─PatchEmbedding: 1-1                         [16, 196, 192]            --
│    └─Conv2d: 2-1                            [16, 192, 14, 14]         147,648
├─Dropout: 1-2                                [16, 197, 192]            --
├─ModuleList: 1-3                             --                        --
│    └─TransformerEncoderBlock: 2-2           [16, 197, 192]            --
│    │    └─LayerNorm: 3-1                    [16, 197, 192]            384
│    │    └─MultiHeadSelfAttention: 3-2       [16, 197, 192]            148,224
│    │    └─LayerNorm: 3-3                    [16, 197, 192]            384
│    │    └─MLP: 3-4                          [16, 197, 192]            295,872
│    └─TransformerEncoderBlock: 2-3           [16, 197, 192]            --
│    │    └─LayerNorm: 3-5                    [16, 197, 192]            384
│    │    └─MultiHeadSelfAttention: 3-6       [16, 197, 192]            148,224
│    │    └─LayerNorm: 3-7                    [16, 197, 192]            384
│    │    └─MLP: 3-8                          [16, 197, 192]            295,872
│    └─TransformerEncoderBlock: 2-4           [16, 197, 192]            --
│    │    └─LayerNorm: 3-9                    [16, 197, 192]            384
│    │    └─MultiHeadSelfAttention: 3-10      [16, 197, 192]            148,224
│    │    └─LayerNorm: 3-11                   [16, 197, 192]            384
│    │    └─MLP: 3-12                         [16, 197, 192]            295,872
│    └─TransformerEncoderBlock: 2-5           [16, 197, 192]            --
│    │    └─LayerNorm: 3-13                   [16, 197, 192]            384
│    │    └─MultiHeadSelfAttention: 3-14      [16, 197, 192]            148,224
│    │    └─LayerNorm: 3-15                   [16, 197, 192]            384
│    │    └─MLP: 3-16                         [16, 197, 192]            295,872
│    └─TransformerEncoderBlock: 2-6           [16, 197, 192]            --
│    │    └─LayerNorm: 3-17                   [16, 197, 192]            384
│    │    └─MultiHeadSelfAttention: 3-18      [16, 197, 192]            148,224
│    │    └─LayerNorm: 3-19                   [16, 197, 192]            384
│    │    └─MLP: 3-20                         [16, 197, 192]            295,872
│    └─TransformerEncoderBlock: 2-7           [16, 197, 192]            --
│    │    └─LayerNorm: 3-21                   [16, 197, 192]            384
│    │    └─MultiHeadSelfAttention: 3-22      [16, 197, 192]            148,224
│    │    └─LayerNorm: 3-23                   [16, 197, 192]            384
│    │    └─MLP: 3-24                         [16, 197, 192]            295,872
│    └─TransformerEncoderBlock: 2-8           [16, 197, 192]            --
│    │    └─LayerNorm: 3-25                   [16, 197, 192]            384
│    │    └─MultiHeadSelfAttention: 3-26      [16, 197, 192]            148,224
│    │    └─LayerNorm: 3-27                   [16, 197, 192]            384
│    │    └─MLP: 3-28                         [16, 197, 192]            295,872
│    └─TransformerEncoderBlock: 2-9           [16, 197, 192]            --
│    │    └─LayerNorm: 3-29                   [16, 197, 192]            384
│    │    └─MultiHeadSelfAttention: 3-30      [16, 197, 192]            148,224
│    │    └─LayerNorm: 3-31                   [16, 197, 192]            384
│    │    └─MLP: 3-32                         [16, 197, 192]            295,872
│    └─TransformerEncoderBlock: 2-10          [16, 197, 192]            --
│    │    └─LayerNorm: 3-33                   [16, 197, 192]            384
│    │    └─MultiHeadSelfAttention: 3-34      [16, 197, 192]            148,224
│    │    └─LayerNorm: 3-35                   [16, 197, 192]            384
│    │    └─MLP: 3-36                         [16, 197, 192]            295,872
│    └─TransformerEncoderBlock: 2-11          [16, 197, 192]            --
│    │    └─LayerNorm: 3-37                   [16, 197, 192]            384
│    │    └─MultiHeadSelfAttention: 3-38      [16, 197, 192]            148,224
│    │    └─LayerNorm: 3-39                   [16, 197, 192]            384
│    │    └─MLP: 3-40                         [16, 197, 192]            295,872
│    └─TransformerEncoderBlock: 2-12          [16, 197, 192]            --
│    │    └─LayerNorm: 3-41                   [16, 197, 192]            384
│    │    └─MultiHeadSelfAttention: 3-42      [16, 197, 192]            148,224
│    │    └─LayerNorm: 3-43                   [16, 197, 192]            384
│    │    └─MLP: 3-44                         [16, 197, 192]            295,872
│    └─TransformerEncoderBlock: 2-13          [16, 197, 192]            --
│    │    └─LayerNorm: 3-45                   [16, 197, 192]            384
│    │    └─MultiHeadSelfAttention: 3-46      [16, 197, 192]            148,224
│    │    └─LayerNorm: 3-47                   [16, 197, 192]            384
│    │    └─MLP: 3-48                         [16, 197, 192]            295,872
├─LayerNorm: 1-4                              [16, 197, 192]            384
├─Linear: 1-5                                 [16, 5]                   965
===============================================================================================
Total params: 5,525,381
Trainable params: 5,525,381
Non-trainable params: 0
Total mult-adds (Units.MEGABYTES): 548.46
===============================================================================================
Input size (MB): 9.63
Forward/backward pass size (MB): 648.73
Params size (MB): 21.95
Estimated Total Size (MB): 680.32
…
Found 5 classes: ['Harlequin ichthyosis', 'Healthy skin', 'Ichthyosis vulgaris ', 'Lamellar ichthyosis', 'Netherton syndrome']
Class weights: [1.0457 0.8663 0.61   1.3556 1.952 ]
model.safetensors: 100% 114M/114M [00:03<00:00, 36.3MB/s]

--- Model Summary ---
=========================================================================================================
Layer (type:depth-idx)                                  Output Shape              Param #
=========================================================================================================
WaveCoAtNet                                             [24, 5]                   839,552
├─Sequential: 1-1                                       [24, 96, 56, 56]          --
│    └─Conv2d: 2-1                                      [24, 96, 56, 56]          4,704
│    └─LayerNorm2d: 2-2                                 [24, 96, 56, 56]          192
├─ConvNeXtStage: 1-2                                    [24, 96, 56, 56]          --
│    └─Identity: 2-3                                    [24, 96, 56, 56]          --
│    └─Sequential: 2-4                                  [24, 96, 56, 56]          --
│    │    └─ConvNeXtBlock: 3-1                          [24, 96, 56, 56]          79,296
│    │    └─ConvNeXtBlock: 3-2                          [24, 96, 56, 56]          79,296
│    │    └─ConvNeXtBlock: 3-3                          [24, 96, 56, 56]          79,296
├─ConvNeXtStage: 1-3                                    [24, 192, 28, 28]         --
│    └─Sequential: 2-5                                  [24, 192, 28, 28]         --
│    │    └─LayerNorm2d: 3-4                            [24, 96, 56, 56]          192
│    │    └─Conv2d: 3-5                                 [24, 192, 28, 28]         73,920
│    └─Sequential: 2-6                                  [24, 192, 28, 28]         --
│    │    └─ConvNeXtBlock: 3-6                          [24, 192, 28, 28]         306,048
│    │    └─ConvNeXtBlock: 3-7                          [24, 192, 28, 28]         306,048
│    │    └─ConvNeXtBlock: 3-8                          [24, 192, 28, 28]         306,048
├─WaveletFrequencyDecomposedCrossAttention: 1-4         [24, 784, 192]            --
│    └─Sequential: 2-7                                  [24, 192, 28, 28]         --
│    │    └─Conv2d: 3-9                                 [24, 192, 28, 28]         18,432
│    │    └─BatchNorm2d: 3-10                           [24, 192, 28, 28]         384
│    │    └─GELU: 3-11                                  [24, 192, 28, 28]         --
│    └─Sequential: 2-8                                  [24, 192, 28, 28]         --
│    │    └─Conv2d: 3-12                                [24, 192, 28, 28]         55,296
│    │    └─BatchNorm2d: 3-13                           [24, 192, 28, 28]         384
│    │    └─GELU: 3-14                                  [24, 192, 28, 28]         --
│    └─LayerNorm: 2-9                                   [24, 784, 192]            384
│    └─LayerNorm: 2-10                                  [24, 784, 192]            384
│    └─Linear: 2-11                                     [24, 784, 192]            36,864
│    └─Linear: 2-12                                     [24, 784, 192]            36,864
│    └─Linear: 2-13                                     [24, 784, 192]            36,864
│    └─Dropout: 2-14                                    [24, 4, 784, 784]         --
│    └─Linear: 2-15                                     [24, 784, 192]            37,056
│    └─Dropout: 2-16                                    [24, 784, 192]            --
│    └─LayerNorm: 2-17                                  [24, 784, 192]            384
│    └─LayerNorm: 2-18                                  [24, 784, 192]            (recursive)
│    └─Linear: 2-19                                     [24, 784, 192]            (recursive)
│    └─Linear: 2-20                                     [24, 784, 192]            36,864
│    └─Linear: 2-21                                     [24, 784, 192]            36,864
│    └─Dropout: 2-22                                    [24, 4, 784, 784]         --
│    └─Linear: 2-23                                     [24, 784, 192]            37,056
│    └─Dropout: 2-24                                    [24, 784, 192]            --
│    └─Sequential: 2-25                                 [24, 784, 1]              --
│    │    └─Linear: 3-15                                [24, 784, 48]             18,480
│    │    └─GELU: 3-16                                  [24, 784, 48]             --
│    │    └─Dropout: 3-17                               [24, 784, 48]             --
│    │    └─Linear: 3-18                                [24, 784, 1]              49
│    │    └─Sigmoid: 3-19                               [24, 784, 1]              --
│    └─LayerNorm: 2-26                                  [24, 784, 192]            384
│    └─Sequential: 2-27                                 [24, 784, 192]            --
│    │    └─Linear: 3-20                                [24, 784, 384]            74,112
│    │    └─GELU: 3-21                                  [24, 784, 384]            --
│    │    └─Dropout: 3-22                               [24, 784, 384]            --
│    │    └─Linear: 3-23                                [24, 784, 192]            73,920
│    │    └─Dropout: 3-24                               [24, 784, 192]            --
├─ModuleList: 1-5                                       --                        --
│    └─Block: 2-28                                      [24, 784, 192]            --
│    │    └─LayerNorm: 3-25                             [24, 784, 192]            384
│    │    └─Attention: 3-26                             [24, 784, 192]            147,648
│    │    └─Identity: 3-27                              [24, 784, 192]            --
│    │    └─Identity: 3-28                              [24, 784, 192]            --
│    │    └─LayerNorm: 3-29                             [24, 784, 192]            384
│    │    └─Mlp: 3-30                                   [24, 784, 192]            295,872
│    │    └─Identity: 3-31                              [24, 784, 192]            --
│    │    └─Identity: 3-32                              [24, 784, 192]            --
│    └─Block: 2-29                                      [24, 784, 192]            --
│    │    └─LayerNorm: 3-33                             [24, 784, 192]            384
│    │    └─Attention: 3-34                             [24, 784, 192]            147,648
│    │    └─Identity: 3-35                              [24, 784, 192]            --
│    │    └─Identity: 3-36                              [24, 784, 192]            --
│    │    └─LayerNorm: 3-37                             [24, 784, 192]            384
│    │    └─Mlp: 3-38                                   [24, 784, 192]            295,872
│    │    └─Identity: 3-39                              [24, 784, 192]            --
│    │    └─Identity: 3-40                              [24, 784, 192]            --
├─ConvNeXtStage: 1-6                                    [24, 384, 14, 14]         --
│    └─Sequential: 2-30                                 [24, 384, 14, 14]         --
│    │    └─LayerNorm2d: 3-41                           [24, 192, 28, 28]         384
│    │    └─Conv2d: 3-42                                [24, 384, 14, 14]         295,296
│    └─Sequential: 2-31                                 [24, 384, 14, 14]         --
│    │    └─ConvNeXtBlock: 3-43                         [24, 384, 14, 14]         1,201,920
│    │    └─ConvNeXtBlock: 3-44                         [24, 384, 14, 14]         1,201,920
│    │    └─ConvNeXtBlock: 3-45                         [24, 384, 14, 14]         1,201,920
│    │    └─ConvNeXtBlock: 3-46                         [24, 384, 14, 14]         1,201,920
│    │    └─ConvNeXtBlock: 3-47                         [24, 384, 14, 14]         1,201,920
│    │    └─ConvNeXtBlock: 3-48                         [24, 384, 14, 14]         1,201,920
│    │    └─ConvNeXtBlock: 3-49                         [24, 384, 14, 14]         1,201,920
│    │    └─ConvNeXtBlock: 3-50                         [24, 384, 14, 14]         1,201,920
│    │    └─ConvNeXtBlock: 3-51                         [24, 384, 14, 14]         1,201,920
├─ConvNeXtStage: 1-7                                    [24, 768, 7, 7]           --
│    └─Sequential: 2-32                                 [24, 768, 7, 7]           --
│    │    └─LayerNorm2d: 3-52                           [24, 384, 14, 14]         768
│    │    └─Conv2d: 3-53                                [24, 768, 7, 7]           1,180,416
│    └─Sequential: 2-33                                 [24, 768, 7, 7]           --
│    │    └─ConvNeXtBlock: 3-54                         [24, 768, 7, 7]           4,763,136
│    │    └─ConvNeXtBlock: 3-55                         [24, 768, 7, 7]           4,763,136
│    │    └─ConvNeXtBlock: 3-56                         [24, 768, 7, 7]           4,763,136
├─PrototypeAnchoredTokenSelection: 1-8                  [24, 27, 768]             3
│    └─LayerNorm: 2-34                                  [24, 49, 768]             1,536
│    └─Sequential: 2-35                                 [24, 49, 1]               --
│    │    └─Linear: 3-57                                [24, 49, 48]              36,912
│    │    └─GELU: 3-58                                  [24, 49, 48]              --
│    │    └─Dropout: 3-59                               [24, 49, 48]              --
│    │    └─Linear: 3-60                                [24, 49, 1]               49
│    └─Sequential: 2-36                                 [24, 1]                   --
│    │    └─Linear: 3-61                                [24, 32]                  24,704
│    │    └─GELU: 3-62                                  [24, 32]                  --
│    │    └─Linear: 3-63                                [24, 1]                   33
│    │    └─Sigmoid: 3-64                               [24, 1]                   --
├─Sequential: 1-9                                       [24, 5]                   --
│    └─LayerNorm: 2-37                                  [24, 768]                 1,536
│    └─Dropout: 2-38                                    [24, 768]                 --
│    └─Linear: 2-39                                     [24, 5]                   3,845
=========================================================================================================
Total params: 30,116,363
Trainable params: 30,116,363
Non-trainable params: 0
Total mult-adds (Units.GIGABYTES): 9.14
=========================================================================================================
Input size (MB): 14.45
Forward/backward pass size (MB): 4379.32
Params size (MB): 117.08
…
